lime_ieinn/example/checkpoint.pt (torch, 2538 bytes, 1 tensors)

output.weight f4 [1, 136]
0.22373246 0.2591754 0.33139744 0.41821143 0.22937404 0.2147331 0.32438228 0.53767085
0.38886937 0.28783354 0.15275073 0.3967734 0.50551397 0.13773865 0.19677544 0.29477164
-0.028725512 -0.028895723 0.08156655 -0.05489549 -0.1950402 -0.030232899 0.040185895 -0.13393362
-0.18662389 -0.037164636 -0.034323186 0.040536687 -0.019107865 0.014743953 -0.0046056616 -0.050234754
0.0022667947 0.017067779 -0.032237895 -0.20835355 -0.12026428 0.019774357 -0.16449419 0.009136676
-0.18256629 -0.077745564 -0.020931646 0.06944618 0.13997358 -0.0511476 -0.092376694 0.0057809316
-0.17227277 -0.15240003 -0.13933676 -0.02590611 -0.023353616 -0.06681898 0.008218211 -0.02566336
-0.022522848 -0.09067773 -0.032055315 -0.0041009877 -0.21057084 -0.107768394 0.08771882 -0.18168628
-0.07373858 -0.06891373 -0.06362103 0.06782981 -0.06872299 -0.07135385 -0.06852111 -0.11492429
-0.13044484 -0.003081487 -0.06865801 -0.047447845 -0.028981742 -0.06589968 -0.018320724 0.047492802
-0.049509224 -0.03103482 0.017223911 -0.0729727 0.06646753 0.021705393 -0.13490775 -0.05182561
0.08153605 0.04192204 -0.11451023 0.0035762996 -0.0806241 -0.12061412 -0.06812166 -0.007419351
-0.10041819 0.113915496 0.14174208 0.09624084 -0.028437547 -0.055201374 -0.030911177 -0.21928686
-0.16762544 -0.10496782 -0.0047698906 0.072475865 -0.13583308 -0.07960613 -0.07750755 -0.020082569
0.0844786 -0.08275269 -0.035148304 0.114132635 0.04129335 0.04091058 -0.0395704 -0.042985834
-0.015005702 0.08469454 -0.11815128 0.10883997 -0.113359325 0.039153285 -0.0677316 -0.09323022
-0.038798053 -0.020079989 0.023747701 0.07313227 -0.159826 0.0012295723 0.056516215 -0.000613156
00000000: 1f1a 653e a3b2 843e edac a93e cf1f d63e
00000010: 07e1 6a3e fee2 5b3e 6f15 a63e cca4 093f
00000020: e319 c73e eb5e 933e b06a 1c3e e225 cb3e
00000030: 5d69 013f 5c0b 0d3e 807f 493e 4fec 963e
00000040: c451 ebbc b9b6 ecbc 5d0c a73d 18da 60bd
00000050: 9eb8 47be fcaa f7bc f799 243d e525 09be
00000060: 551a 3fbe f239 18bd 7896 0cbd cc09 263d
00000070: 1988 9cbc 9f90 713c 17eb 96bb f5c2 4dbd
00000080: 818e 143b bad1 8b3c e20b 04bd a25a 55be
00000090: 1e4d f6bd d5fd a13c 2a71 28be ffb1 153c
000000a0: a8f2 3abe 1139 9fbd d878 abbc cc39 8e3d
000000b0: 3c55 0f3e 2580 51bd fe2f bdbd f86d bd3b
000000c0: 4668 30be c10e 1cbe 4cae 0ebe 0d39 d4bc
000000d0: 1550 bfbc 64d8 88bd ada5 063c f73b d2bc
000000e0: d681 b8bc 3fb5 b9bd 6f4c 03bd 9461 86bb
000000f0: e29f 57be adb5 dcbd eda5 b33d f80b 3abe
00000100: 4104 97bd a422 8dbd be4b 82bd 5bea 8a3d
00000110: a4be 8cbd f821 92bd cc54 8cbd 6d5d ebbd
00000120: 5593 05be c6f2 49bb 929c 8cbd ac58 42bd
00000130: 1e6b edbc 69f6 86bd 5815 96bc d087 423d
00000140: 2fca 4abd bc3c febc 2919 8d3c b672 95bd
00000150: 2120 883d 82cf b13c 4225 0abe 1747 54bd
00000160: 5ffc a63d 72b6 2b3d 5784 eabd 5a60 6a3b
00000170: 401e a5bd 8904 f7bd 5e83 8bbd 071e f3bb
00000180: 0da8 cdbd 874c e93d d624 113e eb19 c53d
00000190: dcf5 e8bc d61a 62bd 7039 fdbc bc8c 60be
000001a0: 01a6 2bbe 5ef9 d6bd be4c 9cbb 3a6e 943d
000001b0: d417 0bbe 8a08 a3bd 47bc 9ebd 3384 a4bc
000001c0: 1e03 ad3d 3e7a a9bd abf7 0fbd 5fbe e93d
000001d0: 3723 293d da91 273d 9214 22bd ea11 30bd
000001e0: 7ada 75bc 5574 ad3d 4cf9 f1bd 7de7 de3d
000001f0: ef28 e8bd 325f 203d ddb6 8abd 7cef bebd
00000200: b5ea 1ebd ca7e a4bc 8a8a c23c 5fc6 953d
00000210: 6da9 23be 9a29 a13a 8c7d 673d 34bc 20ba
